Database/singlefidelity_high_database.pth (torch, 11287 bytes, 6 tensors)

models.0.covar_module.raw_mixture_weights f4 [4]
0	0xbf1b69c6	-0.6070827
1	0xbf1b69c6	-0.6070827
2	0xbf1b69c6	-0.6070827
3	0xbf1b69c6	-0.6070827

models.0.covar_module.raw_mixture_means f4 [4, 1, 7]
0	0x44152885	596.6331
1	0x44ba8855	1492.2604
2	0x431ea709	158.65248
3	0x3f6c6bc8	0.9235196
4	0x43b6dbd8	365.71753
5	0x42a907f9	84.51557
6	0x4216bc95	37.684162
7	0x43fa799e	500.95013
8	0x4296f3d7	75.47625
9	0x42dc7d98	110.2453
10	0x416cbd31	14.796189
11	0x415322dc	13.196011
12	0x42f49dd5	122.308266
13	0x4201b0c5	32.422626
14	0x44155fbd	597.4959
15	0x443a5a1b	745.4079
16	0x4353557d	211.33394
17	0x420a2cee	34.543877
18	0x4328784c	168.46991
19	0x42b74df4	91.65225
20	0x432b97c6	171.59286
21	0x4339d0d0	185.81567
22	0x4495df16	1198.9714
23	0x42ab8710	85.763794
24	0xbe969278	-0.29408622
25	0x43906f70	288.8706
26	0x432d75fe	173.4609
27	0x43023454	130.2044

models.0.covar_module.raw_mixture_scales f4 [4, 1, 7]
0	0x40aa2326	5.3167906
1	0x401c635a	2.443564
2	0xc0891ee4	-4.285021
3	0xc0b27f60	-5.5780487
4	0xbfb80f03	-1.4379581
5	0xc01e14a4	-2.4700098
6	0xc039653d	-2.896804
7	0x42a61004	83.03128
8	0x3ffc206e	1.9697397
9	0xc07e9440	-3.9777985
10	0xc0af736b	-5.482839
11	0xc028844c	-2.6330748
12	0xbfed3260	-1.8530998
13	0xc0092d8a	-2.1434045
14	0x40c31e02	6.097413
15	0x4099485c	4.790083
16	0xc05f7980	-3.4917908
17	0xc054d71d	-3.3256295
18	0xbfb838e0	-1.4392357
19	0xbfca0680	-1.5783234
20	0xc009082e	-2.1411242
21	0x403131a7	2.7686555
22	0x407cf63d	3.9525292
23	0xc03e541d	-2.9738839
24	0xc0701b6e	-3.7516742
25	0x3fa2fdbe	1.2733686
26	0xbf2341e2	-0.63772404
27	0xc05cd8b5	-3.4507267

models.1.covar_module.raw_mixture_weights f4 [4]
0	0xbe371bd0	-0.17881703
1	0xbe371bd0	-0.17881703
2	0xbe371bd0	-0.17881703
3	0xbe371bd0	-0.17881703

models.1.covar_module.raw_mixture_means f4 [4, 1, 7]
0	0x42802815	64.078285
1	0x4302aec5	130.6827
2	0x436fb861	239.72023
3	0x41f9a77d	31.206781
4	0x43a48522	329.0401
5	0x42c525ea	98.57405
6	0x4300e6f6	128.90219
7	0x431b5392	155.32645
8	0x449a4764	1234.231
9	0x4333c5f6	179.77328
10	0x429ee5b1	79.448616
11	0x439ba615	311.29752
12	0x439ca990	313.3247
13	0x431cc829	156.78188
14	0x431057bc	144.34271
15	0x44e3ecd3	1823.4008
16	0x41e6538f	28.7908
17	0x4247062b	49.756023
18	0x42fd14a8	126.540344
19	0x439f099a	318.075
20	0x42bd168b	94.54403
21	0x42a9ffac	84.99936
22	0x44abb0fb	1373.5306
23	0x4205de06	33.46682
24	0x41d5c1c9	26.719622
25	0x42da3fcb	109.124596
26	0x430eadde	142.67917
27	0x43aa2146	340.25995

models.1.covar_module.raw_mixture_scales f4 [4, 1, 7]
0	0x409f0c23	4.9702315
1	0x403630a1	2.846718
2	0xc04cce38	-3.2000866
3	0xc03ce479	-2.9514449
4	0xc00c6a96	-2.1940055
5	0xc02818ba	-2.6265092
6	0xc04e5d72	-3.2244534
7	0x4024203e	2.564468
8	0x4123493e	10.205381
9	0xc03fbba6	-2.9958282
10	0xc09c8465	-4.8911614
11	0xbf7c0768	-0.984488
12	0xbf7daa62	-0.9908811
13	0xc05e946a	-3.4778085
14	0x401137d0	2.2690315
15	0x3ffffca9	1.9998981
16	0xc03fb7fb	-2.9956043
17	0xc09d4257	-4.914348
18	0xbfc2c37d	-1.5215908
19	0xc01960b2	-2.3965268
20	0xc046e33d	-3.1076195
21	0x40969346	4.7054777
22	0x4086f0cd	4.2168946
23	0xbfe67568	-1.800458
24	0xc09eea29	-4.966084
25	0xbfcd01f6	-1.6016223
26	0xbfc9fffa	-1.5781243
27	0xc0812a4f	-4.0364146
